…
ad.?\n\nso WHY DID WE LEARN ABOUT IT-\n\n---\n> shut up\n\nanyways\n```py\nimport torch.nn as nn\n\nmodel = nn.Transformer(\n    d_model=512,\n    nhead=8,\n    num_encoder_layers=6,\n    num_decoder_layers=6\n)\n\nprint(model)\n```\n```\n(venv) [fivy@archlinux llm]$ python main.py\n```\nsome warnings...\n```\nTransformer(\n  (encoder): TransformerEncoder(\n    (layers): ModuleList(\n      (0-5): 6 x TransformerEncoderLayer(\n        (self_attn): MultiheadAttention(\n          (out_proj): NonDynamicallyQuantizableLinear(in_features=512, out_features=512, bias=True)\n        )\n        (linear1): Linear(in_features=512, out_features=2048, bias=True)\n        (dropout): Dropout(p=0.1, inplace=False)\n        (linear2): Linear(in_features=2048, out_features=512, bias=True)\n        (norm1): LayerNorm((512,), eps=1e-05, elementwise_affine=True)\n        (norm2): LayerNorm((512,), eps=1e-05, elementwise_affine=True)\n        (dropout1): Dropout(p=0.1, inplace=False)\n        (dropout2): Dropout(p=0.1, inplace=False)\n      )\n    )\n    (norm): LayerNorm((512,), eps=1e-05, elementwise_affine=True)\n  )\n  (decoder): TransformerDecoder(\n    (layers): ModuleList(\n      (0-5): 6 x TransformerDecoderLayer(\n        (self_attn): MultiheadAttention(\n          (out_proj): NonDynamicallyQuantizableLinear(in_features=512, out_features=512, bias=True)\n        )\n        (multihead_attn): MultiheadAttention(\n          (out_proj): NonDynamicallyQuantizableLinear(in_features=512, out_features=512, bias=True)\n        )\n        (linear1): Linear(in_features=512, out_features=2048, bias=True)\n        (dropout): Dropout(p=0.1, inplace=False)\n        (linear2): Linear(in_features=2048, out_features=512, bias=True)\n        (norm1): LayerNorm((512,), eps=1e-05, elementwise_affine=True)\n        (norm2): LayerNorm((512,), eps=1e-05, elementwise_affine=True)\n        (norm3): LayerNorm((512,), eps=1e-05, elementwise_affine=True)\n        (dropout1): Dropout(p=0.1, inplace=False)\n        (dropout2): Dropout(p=0.1, inplace=False)\n        (dropout3): Dropout(p=0.1, inplace=False)\n      )\n    )\n    (norm): LayerNorm((512,), eps=1e-05, elementwise_affine=True)\n  )\n)\n```\n### positional encoding\n\ni got to the next video and\npositional encoding is not vector embedding??\n\n\"**positional encoding**: token position + embedded vector -> positional encoding\"\n\nohh so the $d$ from last time is probably dimensions, we're doing it like this:\n\n```py\nimport torch\nimport math\nimport torch.nn as nn\n\nclass I
…
